checkpoint.pth (torch_old, 62577 bytes, 8 tensors)

fc1.weight f4 [128, 37]
00000000: 4437 0a3e 69be 3e3e 2cfe 83be 8abb 0cbe
00000010: 8465 06be d9a3 58bc a9a1 b5bd 88b9 0b3e
00000020: 2046 af3d b045 c2bd 81b2 efbd 866a 413c
00000030: 622e 4cbd 82eb dc3c a2d9 3f3c aad1 0b3e
00000040: 77c3 9d3d 65f1 323d 961a 1fbe cc33 13be
00000050: e0a4 4dbe f450 a13e ff08 903d 81b8 963e
00000060: d6c8 50bd 95c2 0a3e 8550 3d3e 3ad1 00bd
00000070: 8ef2 6dbe 44d5 4bbe 0f6e 423c f9a8 053e
00000080: 3227 5fbd 811b ebbb 269c 6ebe d311 82be
00000090: 2c3d f4bc 36f3 813e b956 be3d d066 723d
000000a0: 2756 74bd 58b7 87be 2266 683e 17bf a6be
000000b0: 8d33 96bd a5d2 7fbe 7748 02bf af60 f53d
000000c0: e646 98bd defc 62bd 4003 553e 5c10 163e
000000d0: a22b f03d 8329 5a3d fa96 aa3d f68c 14bd
000000e0: 7799 e7bd 4656 1dbe 000d c1bd 68a4 eabc
000000f0: c9d1 2c3e 3441 f03c 3a9b b9bd 3fba 9b3d
00000100: 9e5c 283e db75 8abd 618b b43c 74b7 453d
00000110: f9c4 333e 4f87 113e 0c2f bd3b de74 2fbc
00000120: 2816 0b3e d3a8 c73b 5ede c33d f976 923e
00000130: 01af e1bd 9562 7bbe 8299 87bd f0e0 49be
00000140: 9415 15be 774a d93d 72af ee3d 0081 8abc
00000150: 467a a53d 8965 893d 5260 67be 54cf 1fbe
00000160: 7861 1dbf e12e c8bd 5d88 f3bd afb5 f73d
00000170: 046d e43c 6105 513c 9e6a e6be 8806 1ebe
00000180: d994 9a3e 0a24 f13c 40ea 5d3e ad5b 9cbd
00000190: a1cb 7b3e d6ba 9abd 5cad 443a 567e 753e
000001a0: ad79 d6bc f29a 023a 86b7 b2be 5280 33be
000001b0: 397c 373e 931d aa3c 2f88 8abc 64a3 de3d
000001c0: dec2 17be ae98 623e f547 a53c d64e b7be
000001d0: e5d8 2fbd 122b 163e e055 f0bd 8c3d 843d
000001e0: 34fe 833e 5896 2d3e 17be 01bf 2ed4 273e
000001f0: b964 08be 1e66 09bf f571 9abc 5059 27be
00000200: 9d32 4c3d ba62 2abe 29be 9f3d 04c1 3a3d
00000210: ead5 b6bc ce33 ebbc 7ee2 433e b7e6 2ebd
00000220: 8943 b83d d3cd 5bbd 3c0c 8b3d 3102 82bd
00000230: 571b 0e3e 12c7 6a3e fbc5 413e b533 95bd
00000240: 65c0 e7bd 553e dcbd 4ef2 133c 7246 31bb
00000250: a440 6ebd 2cc7 b0bd ae24 73be 87ef d2bd
00000260: 0e4b 083e d333 163d 9a75 b43d 7bb8 2dbc
00000270: 5d4c 973d 4674 1e3e c173 613e a546 afbd
00000280: 4ef8 70be ad03 71be 26fa 4fbf b7ff 7cbe
00000290: 0a54 de3d fe43 a23d 54c2 89bd ac84 213d
000002a0: 8ef8 ecbd 810c fbbd 52df 043e b2d0 8d3d
000002b0: e9a8 583e 9a32 233e 62e7 afbd 837c e3bc
000002c0: 0589 babd bfdc debd 66cc d83d 8558 23bc
000002d0: 8d2f bdbc 216b f8bc f6f6 0b3f 3a82 833c
000002e0: 91d6 083d cc60 863d dc7c a4be d286 2ebd
000002f0: c8f1 a8be 706c 923c e4f0 90bd 9198 203e
00000300: 4e1c ecbc 4fd5 213d 6c11 0cbf 85b5 dabd
00000310: 4861 28be aff3 273d f742 e1be 120f b5be
00000320: 144f 71be 8be4 2a3e 430d 83bd ac51 adbe
00000330: 9a51 6dbe 3fda 55bd 468d 76be 7faa 173e
00000340: df98 263e 6716 1abf a383 1fbe 348a 1f3e
00000350: 532a 4dbc 4f88 99be 0606 bdbd 20ea 863d
00000360: 51c2 16bf e9be 2dbd 2e6d 64be 31d8 73bf
00000370: 7564 9dbe 334d fd3c 494c 8e3d a08c 25bd
00000380: 8527 1abe 8f3a a63c adc4 e03a 9527 71bd
00000390: 72ed d1bd b354 023d 1ecf 63be 056d 3c3e
000003a0: 3a9b 73bd 2cdb 0b3e 7537 3bbd 5c9d 253b
000003b0: e767 a73e b5c8 b1be 2fbf a9bd 78ae f43d
000003c0: 63f9 2b3e 1aa9 683e 99bf 99bd 656d 4a3c
000003d0: 7e90 a43d 1af0 7fbe 1095 bebc e3a1 b1be
000003e0: d187 0fbb 6d55 453c faf3 1dbc 3bc4 9ebc
000003f0: 9ef9 93bd 9cd9 833d 591d 66be df45 ff3d
0.13497645 0.18627323 -0.25779855 -0.13743415 -0.13124663 -0.013222658 -0.08868725 0.13644993
0.08558297 -0.09485948 -0.11703969 0.011805182 -0.04984892 0.026967768 0.011709603 0.13654199
0.077032976 0.043687243 -0.15537485 -0.14375228 -0.20082426 0.31507075 0.07032966 0.2943764
-0.050972782 0.1355079 0.18487747 -0.031449534 -0.23237059 -0.19905573 0.01186706 0.13052739
-0.05448074 -0.0071749096 -0.23301753 -0.25404224 -0.029814325 0.25380868 0.09293885 0.05918008
-0.059652474 -0.26507068 0.2269521 -0.32567665 -0.07334051 -0.24982698 -0.5089182 0.119813316
-0.07435398 -0.055416934 0.20802021 0.14654678 0.11727072 0.053262245 0.08329578 -0.036267243
-0.11308568 -0.15364942 -0.09426308 -0.028642848 0.16876902 0.029327966 -0.0906281 0.07603883
0.1644158 -0.067607604 0.022039117 0.048270658 0.17555608 0.14211772 0.0057734307 -0.010709016
0.1358267 0.0060931235 0.095638976 0.28606394 -0.110197075 -0.24549325 -0.06621076 -0.19714713
-0.14559013 0.10609906 0.11654557 -0.016907215 0.080799624 0.067088194 -0.22595337 -0.15606433
-0.6147685 -0.097745664 -0.118912436 0.120952 0.027884014 0.01275763 -0.45003217 -0.15432179
0.30191687 0.02943613 0.2167139 -0.07634673 0.24589397 -0.075551674 0.0007502639 0.23973975
-0.026181066 0.0004982195 -0.34905642 -0.17529419 0.17918481 0.020766055 -0.01691064 0.10871008
-0.1482043 0.22128555 0.020175913 -0.35802335 -0.042931456 0.14664868 -0.11735129 0.06457052
0.2577988 0.16951883 -0.5068068 0.16389534 -0.13319673 -0.53671443 -0.018853167 -0.16342664
0.049852956 -0.16639224 0.07799942 0.04559423 -0.022318799 -0.028711226 0.19129369 -0.042700496
0.08997256 -0.053663086 0.06789443 -0.06348074 0.13877617 0.22927502 0.1892318 -0.07285253
-0.11315993 -0.107540764 0.009029938 -0.0027050045 -0.058167115 -0.08631739 -0.23744461 -0.102995925
0.13309881 0.036670517 0.08811493 -0.010603066 0.07387612 0.15474042 0.22016813 -0.08558396
-0.2353222 -0.23536558 -0.8124107 -0.24706922 0.10855873 0.07923125 -0.06726518 0.039433166
-0.115708455 -0.12258244 0.12975815 0.06924571 0.21158184 0.15937272 -0.08589055 -0.027769333
-0.09108166 -0.10881948 0.10585861 -0.009969835 -0.023093963 -0.03032452 0.5467371 0.016053308
0.03340775 0.06561431 -0.3212651 -0.042609043 -0.32996964 0.017873973 -0.07077196 0.156832
-0.02882209 0.039510068 -0.54714084 -0.10679153 -0.1644336 0.04100388 -0.43996403 -0.3536306
-0.23565322 0.16688745 -0.06399014 -0.33851373 -0.2317566 -0.05221009 -0.24077329 0.14811133
0.16269253 -0.60190433 -0.15577559 0.15580064 -0.012522298 -0.29986808 -0.092296645 0.065876245
-0.58890253 -0.042418394 -0.22307274 -0.95251757 -0.30740705 0.0309206 0.06948144 -0.040417314
-0.15054138 0.020291595 0.0017148458 -0.05887564 -0.10250367 0.031819057 -0.22246978 0.18400963
-0.059474207 0.13657826 -0.045707185 0.0025270795 0.3269646 -0.3472344 -0.082884185 0.1194734
0.16794352 0.22720757 -0.075072475 0.012355183 0.08035372 -0.24993935 -0.023264438 -0.34693822
-0.0021901021 0.012044293 -0.009640688 -0.01938068 -0.07225345 0.0643799 -0.22472133 0.12464499

fc1.bias f4 [128]
00000000: 70fe ce3c 9802 963d 6ecf 72bd ab50 1bbd
00000010: a30c 04bc 6aa1 ebbd 4974 983d 6142 ad3d
00000020: 2ae0 3bbe ded5 8a3d 7ea6 cbbd 6ff0 e23c
00000030: cff2 debc 1b23 9ebc 34df d0bd 4bd3 73bd
00000040: fd03 c83d 1131 0ebd fa0e 36bd 95aa b2bc
00000050: e74f 55be 92fd 5b3d 6287 1f3e bd1f 853d
00000060: 0cfd f43c 5a78 c43d 69e4 433e e62d 1fbe
00000070: 1deb 9abd 01cb 2abe 7640 953d 3221 153e
00000080: 6ff9 aabd c844 d63b a1c4 dc3c 8a16 13be
00000090: 316b 23bc 0ef8 1c3d 46ce a03a fbc2 8d3d
000000a0: 3f30 2f3c 90ba 633d 94ca 983d 0f30 30bc
000000b0: 5058 5f3d 3998 f7bd b186 4f3d d01e a2bd
000000c0: 46f0 2fbe 955a cb3d 6ab7 c1b9 d297 3ebd
000000d0: d898 30bd 5234 f53d f9cb 1c3d b450 2a3c
000000e0: 8a3c fdbd 9884 243d 007c 4f3d c2ba 4ebc
000000f0: fcba 58be b8d0 833d 9443 cb3d b1b0 273c
00000100: 36b9 1a3e 5e05 0b3d a4a7 3d3d 66d8 ffbc
00000110: 0a18 33be d9da f2bd 6987 b8bd a43c 20bd
00000120: 40d7 113c 2f1d eabd 55fc f3bd c66f 5ebd
00000130: 933e 313e 086a dbbd c66e db3c 84f8 843b
00000140: 0a06 ee3b 7a38 703d f0ff 843d fd56 c3bd
00000150: 5612 cdbc 9231 163e eee0 e93d 6786 dbbc
00000160: b213 ed3c e66c 953b 3919 293b 864d 0b3c
00000170: c9bc 91bd 5777 3fbe 3bae 94bd 52a8 c53d
00000180: 49b1 d2bc c0b2 48be 9afa 86bc b80c dc3d
00000190: e928 e4bd f231 62be a2a5 fb3d f7b1 f93d
000001a0: fa36 4cbe aaec 37be 4062 9fbd ef16 e83d
000001b0: 9284 cbbd c940 d83b 400a e93d a694 22bd
000001c0: 4fbc 13bd c4a0 06be fbbe 6dbc cfa5 263e
000001d0: f19b 25bb c02c 653d f5f3 7b3d 074d 6ebd
000001e0: c50f f1bb d623 dc3b 60ff c4bd 2d14 41be
000001f0: f7da 68bd d313 c6bc 7755 0c3e 2a10 04be
0.02526781 0.073247135 -0.05927985 -0.037918728 -0.008059653 -0.11505397 0.07444055 0.084599264
-0.1834723 0.06779073 -0.09943865 0.027702538 -0.02721539 -0.019303849 -0.101988226 -0.059527677
0.09766386 -0.034714762 -0.044447877 -0.021809855 -0.20831262 0.05370862 0.15578988 0.06500194
0.029905818 0.09593268 0.191301 -0.15544853 -0.075643755 -0.16679002 0.072876856 0.14563444
-0.08348357 0.006538961 0.026949229 -0.14364067 -0.009974287 0.0383225 0.0012268506 0.06921955
0.010692655 0.05559784 0.07460514 -0.010753646 0.05452758 -0.12089581 0.05066556 -0.07916033
-0.17181501 0.099293865 -0.00036948483 -0.046531506 -0.043114513 0.1197287 0.03828046 0.010395218
-0.123650625 0.040165514 0.050655365 -0.012617769 -0.21165079 0.06436294 0.09924999 0.010234998
0.15109715 0.033940665 0.046302453 -0.031231117 -0.17489639 -0.11858148 -0.090102024 -0.03912033
0.008901417 -0.114313476 -0.11913363 -0.054305814 0.17309026 -0.10713583 0.02678622 0.0040579457
0.0072639035 0.05864761 0.06494129 -0.09538076 -0.025033157 0.14667347 0.11419855 -0.026797486
0.028940056 0.004560101 0.0025802387 0.00850237 -0.07116086 -0.18697868 -0.07259794 0.09651245
-0.025719302 -0.19599438 -0.016476918 0.107446134 -0.111406155 -0.22089365 0.12287451 0.12192147
-0.19942847 -0.17961374 -0.077824116 0.11332499 -0.09937395 0.00659952 0.11378908 -0.039692543
-0.036068257 -0.13147265 -0.014510865 0.16274188 -0.002526995 0.05595088 0.061511952 -0.058178928
-0.007356616 0.006718139 -0.096190214 -0.18855353 -0.056849446 -0.024179375 0.13704477 -0.12896791

fc2.weight f4 [64, 128]
00000000: 1dde 2dbe ea00 3cbd eccc 8dbe 588a b3be
00000010: 09cb 083d 1b97 2c3d 40f0 d23d bbe0 543d
00000020: da43 0a3e ecdc dd3d 1a1f f13d 6c0c b03d
00000030: 4ea5 4abd b606 f43d 7dff 02bd dd84 023d
00000040: dc70 ec3d 4e4a bcbd 4b74 373d 02a4 70bd
00000050: 7f5a 05be 2f1c f13b 650c 8dbe 44d0 2bbc
00000060: 7a16 4c3d ecac 12bc 023b 8ebd 7a57 d1be
00000070: 5e53 bebc b33e a0bb ec5d 84bd e21b 7c3d
00000080: 4f64 973c 33ff 44bd 52f1 dcbd 3380 c2be
00000090: fac6 cf3d 93f3 c1be 60e3 a33d d8b4 bfbc
000000a0: ce2a 81be ca81 6dbe 0a2a 8abd 2b3e 53bd
000000b0: 93c9 0ebe 0815 59bd 5202 c1bd a1d7 e1bc
000000c0: df70 92be 1f95 bbbe 4ead bd3c 51f1 3dbc
000000d0: 3426 0fbe 5a1e 2bbe 01f5 523e d131 73bd
000000e0: b82e 293e 3955 c3be 24d0 c83d d727 bf3d
000000f0: 12a6 be3b a6b2 2a3b a890 303c c166 dd3c
00000100: c97a e23d aa7c 823d 7a34 d53c 4648 093d
00000110: afcc 5cbc d05e 8ebc 9242 fe3c 0616 84bc
00000120: 12df 65be a607 3a3d 6f17 913d 1fe0 05be
00000130: 3f07 c5be 6cb4 39bd 3877 b6bd 23f1 a6bc
00000140: 9633 8c3c 2941 0cbe 233e 6e3d a1a5 e6bc
00000150: a615 233d 4c43 bbbd d26e 163e b77b 71bd
00000160: 0aac 553d ae48 533e a23b 40be 30b9 92be
00000170: 583f b13d 383e 9d3d a891 71bd 15eb 68bd
00000180: d986 22bd 4146 2b3d f7ee 89bd 09f3 79be
00000190: e16c 063e 8ca6 75be 85fe 7abe e233 843c
000001a0: 06dc f73d 8573 65be 3727 213e af15 293d
000001b0: b13f 443d 72b3 7fbc 8aa9 bebd 9d02 be3c
000001c0: 6ee5 243d 7526 093d a273 3dbe 5ff4 e2be
000001d0: 9a52 f3bd 152d 703e b9c7 7cbd e3f5 9cbd
000001e0: 7478 f33d c721 eabc 264f 7a3d 142b fd3c
000001f0: 4004 853d ae7c 6fbd bcaf c23d d7c1 69bd
00000200: c94f 493d 386a 89bc 3c6e 00bd 6f37 febc
00000210: 0174 abbd dc40 31bd 61f8 79bc 29de cdbd
00000220: bd35 923d fef8 a2bd 75b7 2abd b165 99bc
00000230: 50e3 adbd 1a07 d1bc 18a2 2abd c0f6 b2bd
00000240: a3c0 ecbc 08ef 933d 0062 40bb ad97 df3c
00000250: a4c7 40bc c477 2cbd e040 743d c29c 68bd
00000260: b9da babd 4b64 583c 53a4 c73c 3d98 96bd
00000270: 1cb8 d03c 8cba 0cbd 689f 40bb 7993 02bd
00000280: e74a 1cbd dcc8 bdbd 4564 533b b975 dbbc
00000290: ed72 143d ba11 e53a 0748 8cbd 0876 92bd
000002a0: c107 78bd 2359 833c 1407 7ebd b2c7 65bd
000002b0: a69f 3bbc 05fe a8bd b59a 52bd 4fd9 973d
000002c0: 50dd 8bbd b730 6bbd 4583 403d b9da 563c
000002d0: b54f 5f3d f659 debd 14ef 973c bf52 c9bc
000002e0: cd9f 95bd 3048 69bd 2ea1 c1bd 7459 fa3c
000002f0: a1ce c7bc 3c49 b6bd a538 453d f6ef 233d
00000300: 283b 893c 3d7c 9a3d 2065 993d b178 9e3d
00000310: 38b2 823d 23f8 663d f2db 833c 16d3 42bc
00000320: bc54 9ebc c50b 97bc bd65 203c d1cd 33bc
00000330: 6802 e93b d510 98bd 1c67 4abd 0ec2 253d
00000340: a76b 26ba 9635 683c 2a8d a9bd 464b 56bd
00000350: 71ca e3bc 1c43 23bd fb6d 193d 4786 3ebd
00000360: 893c 9f3d 30f7 02bd 2bc3 e53c 703d 88bd
00000370: ce9b c73b 70da a0bd 9d74 aabd 8bde a6bd
00000380: 70a6 703c be54 08bc 805b 473b 75f5 89bc
00000390: c884 353d a59d a53d 1301 9f3c 71cb 853d
000003a0: 82de acbc 2e52 05bd 25c0 97bb 8ee8 263d
000003b0: 3365 2dbd ddfe 95bd 1abf 2d3c fafb 00bd
000003c0: 5b86 90bd 39cb 903d 7894 1bbc 605f 8abd
000003d0: 308a 6dbd e01c 7c3d 0e8d 503d 22b4 a2bd
000003e0: e89a 00bc f1b5 b8bc bbc2 093d 3c79 a4bd
000003f0: fb62 93bc 8be9 b33c c2db 5a3d b0cd 983b
-0.1697926 -0.04589931 -0.27695405 -0.35066485 0.033396754 0.042136293 0.1029973 0.051972132
0.13502446 0.10833153 0.1177351 0.08596119 -0.049474053 0.119153425 -0.031981934 0.03186499
0.11544964 -0.0919386 0.04478864 -0.05875016 -0.13022803 0.007358096 -0.2754852 -0.010486666
0.049826123 -0.008952361 -0.069448486 -0.40887052 -0.023233112 -0.004890287 -0.06463227 0.06155003
0.018480448 -0.04809494 -0.10788216 -0.37988433 0.10145374 -0.37881145 0.08002353 -0.023401663
-0.2522797 -0.23194042 -0.067462996 -0.05157296 -0.13944082 -0.052998573 -0.09424271 -0.02756864
-0.2860174 -0.36637208 0.023153927 -0.011593179 -0.13979417 -0.16710797 0.20601274 -0.05937368
0.16521728 -0.38150957 0.09805325 0.09333771 0.005818137 0.0026046424 0.010776676 0.027026536
0.11058576 0.06371434 0.026026 0.03351619 -0.013476535 -0.017379194 0.031037603 -0.016123783
-0.22448376 0.04541745 0.07084548 -0.13073777 -0.3848209 -0.04533808 -0.08909458 -0.020378655
0.017114442 -0.13696732 0.058164727 -0.02815515 0.039815567 -0.09143695 0.14690712 -0.058955874
0.052166022 0.20633194 -0.18772748 -0.28656912 0.0865466 0.07677883 -0.0589768 -0.056864817
-0.039679382 0.041815046 -0.06735032 -0.24409117 0.13127472 -0.23989314 -0.24511154 0.01613802
0.12102513 -0.22407348 0.15737616 0.041280445 0.047912303 -0.015606748 -0.09309681 0.023194605
0.040257864 0.03348394 -0.18501142 -0.44327065 -0.118809894 0.23454697 -0.061713908 -0.07664087
0.11888209 -0.02858056 0.061110638 0.03090433 0.06494951 -0.058468513 0.09506175 -0.057069626
0.049148355 -0.016774282 -0.031355128 -0.031032292 -0.08371735 -0.043274745 -0.015256972 -0.10052139
0.07139156 -0.07957648 -0.041678865 -0.018725248 -0.08490622 -0.025516082 -0.04165849 -0.0873847
-0.02890045 0.07223326 -0.0029355288 0.027294004 -0.011766348 -0.042106405 0.059632182 -0.05679012
-0.09123749 0.013207505 0.024370348 -0.07353256 0.025478415 -0.034357592 -0.0029391889 -0.031878922
-0.03815737 -0.092668265 0.003225581 -0.026789533 0.036242414 0.0017476596 -0.068496756 -0.07151419
-0.06055427 0.016033715 -0.06201847 -0.056098647 -0.011451637 -0.082515754 -0.05141707 0.07414495
-0.068293214 -0.057419505 0.04700019 0.013113671 0.054519374 -0.108570024 0.018546619 -0.02457559
-0.0730587 -0.05695361 -0.09454571 0.030560233 -0.02439052 -0.08900687 0.048149724 0.040023766
0.01675184 0.07543228 0.07489991 0.07737864 0.06381649 0.056388985 0.016096089 -0.011891147
-0.019327514 -0.01843823 0.009789881 -0.010974363 0.0071108826 -0.074250855 -0.04941474 0.040468268
-0.0006348439 0.014172932 -0.08278878 -0.05231788 -0.027806493 -0.039858922 0.0374584 -0.046514776
0.07775218 -0.031974018 0.028047165 -0.06652343 0.0060915714 -0.07854164 -0.083230235 -0.081479155
0.014688119 -0.008320985 0.0030419528 -0.016840676 0.044316083 0.08086709 0.019409692 0.06532944
-0.021102194 -0.032549076 -0.0046310597 0.040749125 -0.04233284 -0.07324002 0.010604644 -0.031490304
-0.07056876 0.07070012 -0.009495847 -0.067564726 -0.057993114 0.061550975 0.05091577 -0.07944514
-0.0078494325 -0.022547694 0.033632975 -0.08030936 -0.017991534 0.021961948 0.053432234 0.0046631917

fc2.bias f4 [64]
00000000: c28f 2a3a 44e5 9cbd 0fac a43d bc57 9bbd
00000010: d893 a53d aa21 a2bd 8733 043c 1c2d 163e
00000020: 7abf a8bc c13b 9abd c352 d33d a781 0abe
00000030: 6a27 9dbc 1e0f 25be cd50 b6bd 53c5 6b3d
00000040: 9c86 ce3d 4e67 633a 884b 433d dfd3 67bd
00000050: 6708 4e3e 2dd9 a03d 7418 553b cf4e 89bd
00000060: 9e19 cf3d 440a ec3d db4a 283d 6a87 56bd
00000070: 1dcc 32bc 3bba 773e 10eb 243e f8fa a43d
00000080: b010 bd3b 8115 9d3d 4a2f 8b3d a76d 4ebc
00000090: f78e b93d 3e67 ebbc 185c 303d fa38 733d
000000a0: 9462 42bb 93f1 f93d 2c81 8d3d 3f2f 243c
000000b0: d312 c83d 836c 9f3d 0fce 88bd aec1 eabd
000000c0: 1d1f 59bd 5b9b 863c 68e2 86bc 79b1 88bd
000000d0: eb28 0fba 518d e9bb a48a e4bc 4fdb b43c
000000e0: 7838 dcbc 1680 99bc 676e bf3d d5d1 913d
000000f0: e8d8 3ebd 6aea 0dbe 8407 d3bd df50 7ebc
0.0006506407 -0.076609164 0.0804063 -0.075850934 0.080848396 -0.07916577 0.008068926 0.14665645
-0.020599116 -0.075309284 0.1031852 -0.13526021 -0.019183833 -0.16119048 -0.0890213 0.05756123
0.100842685 0.00086747564 0.047679454 -0.05659854 0.20120393 0.07853923 0.0032515796 -0.06704485
0.10112308 0.115253955 0.041087013 -0.052375235 -0.010912922 0.24192135 0.16105294 0.08055681
0.0057698116 0.07670117 0.06796129 -0.012599385 0.090604715 -0.028735753 0.043056577 0.05938051
-0.0029660808 0.1220428 0.06909403 0.01002103 0.097692154 0.07784369 -0.066799276 -0.11462723
-0.053008188 0.016431501 -0.01646538 -0.06674475 -0.00054611143 -0.007127442 -0.02789814 0.02207723
-0.026882395 -0.018737834 0.093472295 0.071201004 -0.046593577 -0.13858953 -0.10304168 -0.015522211

fc3.weight f4 [32, 64]
00000000: 0d0d 8e3e 87be 843d a0d1 ae3e 6575 033e
00000010: ea8a bebb 743f 2dbe f996 b03e 6238 b3bd
00000020: 02ae 04bd fa91 b4bd 1d13 f03d 523e 17bd
00000030: 5a11 20be bf7a 993b b7ab 6c3d 479a 023d
00000040: a7b5 5cbe cbda 7bbe bcc5 283c 64a5 033e
00000050: 6eea 6cbe 4ba3 063e e1fe a3bd 379e 82bd
00000060: 9122 fcbb 55ed 59be 6336 023e d1a2 71be
00000070: 715f cdbc dd99 97bd 2c6b e5bd 896a efbd
00000080: 926d a33d 162f 583e 1d0c 42bd e168 90be
00000090: f791 e4bc bdde 0f3e c375 df3c 792b cd3d
000000a0: ac77 9a3e a621 e43d 9577 05bf d3e5 523e
000000b0: 33b4 0ebe 1df0 17be 86b4 dc3e 23f0 0d3d
000000c0: 16b0 b43e e5d9 b4bc 625d 21be f1d5 0abe
000000d0: 15c9 57be 41f7 813e d772 a63d 2d9e 673d
000000e0: 6f39 02be 78d3 3e3d af73 cc3d dbb5 94bc
000000f0: 03e4 bdbe f2c1 753e 9867 9b3d 9278 93bd
00000100: 0c90 123c c354 993d 6811 f9be 5728 41bd
00000110: ae5a 23be b1c6 c23d 5c1c 59bd 214c aebe
00000120: c386 c63e ed60 d33e b25a 6abe 76c0 063e
00000130: f15e 103d 39c6 7c3e 1c36 6ebd 8f51 2dbe
00000140: eb1a 3cbe ad6e 94be e014 6c3e cc43 a03e
00000150: 7e8d aabe 5e74 0cbe c60e a0be 90fb a33e
00000160: 0a0c debd fd5f b2be de9e 6f3d 5671 76bb
00000170: 54e2 8e3e 71a0 73be ca13 d7be 7392 4ebd
00000180: 7213 f4be c672 bbbd 441d 9abe f5be 703e
00000190: fbe4 a3be bf64 1bbd 0343 0a3e d34c 0ebd
000001a0: 591b 403e 5ffc 34be 6259 abbd 5d89 d83d
000001b0: f060 9bbc 3f0e 7fbe 04a7 a03c 07a5 823e
000001c0: 2d0d 4f3e d686 26bc 432f 15be d99f 53bd
000001d0: 5cb6 02be 6aca cb3e 3495 f53d 29a8 ba3d
000001e0: 22e7 b03e 1814 523e 9c0e 503e ecf2 103d
000001f0: f234 9d3e 5a22 b53a 1c3a 6d3d 12f5 e03d
00000200: 2e36 1abe a723 adbd 1516 003d 1fb6 223e
00000210: f9fc a43e df33 01be 1695 15be ecc5 ba3d
00000220: ff0b c63d 1fcc 74bd 0c6b 90be c638 603c
00000230: bd0f 043e 8075 70bd b25e a1bc 82f0 f33d
00000240: 2ccd 21bd 4e51 a63c 1ab9 17bd 0a13 0c3e
00000250: e801 9a3c 487a 263e 41b4 fe3d 86f2 97bd
00000260: c6cb b53d 1e6e 063e ee45 bf3d a2ba 333e
00000270: fc20 9dbe 10be 92bd e095 ae3d 7704 753d
00000280: d12a 06be 2f9d b1bd 65ce 8fbd 948a 00be
00000290: 7fd5 11be 21cb 0bbe e5b0 113e cc65 273e
000002a0: 803f dabd a019 313c d0aa 66bd 1220 dbbd
000002b0: f7b4 403e 7167 c73d d683 7cbe e5f3 3ebd
000002c0: 777b 4abe f9fe 2c3e 160c 15bc 19c8 193e
000002d0: ec0a 27be 5177 893e c05c 18be fccb 5a3e
000002e0: d41a 073e f1c9 8cbd eccc 343e 637d 7c3b
000002f0: 609e 663e 7360 53be 6d1e 81bd 64b1 8dbe
00000300: 6cc5 c53d 6abb a3bd 917e 69be 4c55 173e
00000310: 621c 943e df04 b8bd 528e 55be c0b3 1fbd
00000320: 9f68 bdbc 854a 82bd 5c43 02bf 4d65 63bc
00000330: 5d2e 033e 7b7f e83d d2c8 b6be 9990 093e
00000340: 4b3c 093e 392f ff3d 5259 e1be 25bf f5bc
00000350: 0c09 523e dd6a 67bd f27e 93be 9f32 2cbd
00000360: 2d4a d93d 6ce0 c43d 5f86 bdbd 6dcd 5bbd
00000370: ca39 123e ae86 bf3d 7cbd 42be 4c03 653e
00000380: f68a e73c 82ad 123e 20e9 4d38 a282 dfbd
00000390: def0 57be c467 62be f47e 76bd 1244 3e3d
000003a0: 3d2c 9a3d 3332 e8bd 953b d93c e7a1 66bc
000003b0: 1e2d 633d 5d98 a1be 0365 14be 863e 37be
000003c0: 53ab 42be ab87 513e 1802 9d3e d33d 143e
000003d0: 9b74 4d3e 77ca 1bbf 46cb a1bd 5138 373e
000003e0: 443d 2f3d 757a 6abe 5787 f8bd a202 97bd
000003f0: 4023 9ebe dfde 26bd 80cb 93be b525 4fbe
0.27744332 0.06481653 0.34144306 0.12837751 -0.0058148997 -0.16918737 0.34490183 -0.087509885
-0.03239251 -0.08816905 0.117223956 -0.036924668 -0.15631619 0.004683822 0.057780948 0.03188541
-0.2155367 -0.24595182 0.01030105 0.1285606 -0.23136303 0.13148229 -0.08007599 -0.06377833
-0.0076945503 -0.21281941 0.1271606 -0.23597266 -0.025069924 -0.07402394 -0.11202082 -0.11690242
0.07979883 0.21111712 -0.047374833 -0.28205016 -0.027901633 0.14049812 0.027277833 0.100180574
0.30169427 0.111392304 -0.5213559 0.20595483 -0.13935928 -0.1483769 0.43106478 0.03465284
0.35290593 -0.022076556 -0.15758279 -0.13558175 -0.210728 0.25383952 0.08127373 0.056547333
-0.12717222 0.04658839 0.099830024 -0.018153122 -0.37088022 0.23999766 0.07588118 -0.07200731
0.008945476 0.0748687 -0.48646092 -0.04715761 -0.1595256 0.09510554 -0.05300556 -0.34042457
0.3877469 0.41284886 -0.2288616 0.13159356 0.035246793 0.24684991 -0.05815707 -0.16925643
-0.18369643 -0.2899069 0.23054838 0.31301725 -0.33311075 -0.13716266 -0.3126127 0.32027864
-0.1084214 -0.34838858 0.058501117 -0.0037604175 0.2790705 -0.23791672 -0.42007285 -0.050432634
-0.47671086 -0.09152751 -0.30100453 0.23510344 -0.32010636 -0.037937876 0.13502125 -0.034741234
0.18760432 -0.17674397 -0.08366658 0.10573075 -0.018967122 -0.24907778 0.01961089 0.2551653
0.2021987 -0.010163983 -0.1456881 -0.051666114 -0.12764877 0.39802867 0.11991349 0.09114105
0.3455134 0.20515478 0.20318073 0.03538792 0.30704457 0.0013819442 0.057916746 0.109842435
-0.1505973 -0.08454066 0.03127106 0.15889786 0.32224253 -0.12617444 -0.14607653 0.09119782
0.09670257 -0.059764978 -0.2820667 0.013685411 0.12896629 -0.058705807 -0.019698475 0.119111076
-0.039502308 0.020302441 -0.03704176 0.13679138 0.018799737 0.16257584 0.124367245 -0.074193045
0.08876757 0.13127944 0.0933951 0.17551664 -0.30689228 -0.07165158 0.0852468 0.05981871
-0.1310227 -0.086725585 -0.070217885 -0.12552863 -0.14241599 -0.13651706 0.14227636 0.16347426
-0.10656643 0.010809332 -0.056315243 -0.10699476 0.18819033 0.09736527 -0.24659666 -0.046619315
-0.1977366 0.1689414 -0.00909712 0.15017737 -0.1631276 0.26848844 -0.14879131 0.21366876
0.13193828 -0.06874455 0.17656296 0.0038526885 0.22521353 -0.20642261 -0.063046314 -0.276744
0.09656796 -0.07994731 -0.22802188 0.14778632 0.28927904 -0.08985304 -0.20855072 -0.038989782
-0.023121176 -0.0636187 -0.5088403 -0.013879132 0.12810655 0.1135244 -0.3570009 0.13434066
0.13401906 0.12460179 -0.44013458 -0.029998371 0.20511264 -0.056498397 -0.2880779 -0.042040464
0.10609851 0.096131176 -0.09254145 -0.053662706 0.14279857 0.0935186 -0.19017595 0.22364539
0.028264504 0.14324 4.9092923e-05 -0.10913588 -0.21087977 -0.22109896 -0.060179666 0.046451636
0.07527969 -0.113377 0.026517669 -0.014076686 0.05546295 -0.31561556 -0.14491658 -0.17894945
-0.19010668 0.2046191 0.3066566 0.14476709 0.20064013 -0.6085581 -0.079000995 0.17892577
0.042783037 -0.22898276 -0.12135189 -0.07373549 -0.3088627 -0.04073989 -0.28866196 -0.20229228

fc3.bias f4 [32]
00000000: 9519 d93c 53a0 dbba 0165 1dbe 838e 013e
00000010: 2736 b1bd c75f 1bbe 8306 e33e 5382 f33d
00000020: 9c1a bc3d 19f5 913e 8cdd 32be a877 75be
00000030: d518 c13d fcfc 513e cb18 423d 3274 36be
00000040: c10e febc 0b44 bd3d 516d 89bd 5f35 cbbb
00000050: 18bd 723e 8899 ccbd ca50 9c3e 0821 5c3e
00000060: b183 863e 541f a9bb dc26 1a3e fe1e 9cbd
00000070: 9be8 55be c374 823e 8a00 bc3e 87f9 e93d
0.026501456 -0.0016756154 -0.15370561 0.1265202 -0.08652907 -0.15173255 0.44340906 0.11890092
0.09184763 0.28507307 -0.17467326 -0.23971426 0.094285645 0.20506662 0.047386926 -0.17817762
-0.031012895 0.09241494 -0.067103036 -0.0062014307 0.23704946 -0.09990221 0.30530387 0.21496975
0.26272348 -0.0051612053 0.15053886 -0.07623099 -0.20889513 0.25479707 0.3671916 0.11424547

fc4.weight f4 [4, 32]
00000000: 035d 7fbb 14f7 c5be bd40 7bbe 7d6a 923e
00000010: 71cb c6bd f534 443c f1da 683e 78f5 bebd
00000020: 805e 5e3e 4789 793e 4533 29be 6431 97be
00000030: 74d7 85bd 7538 c03e 0782 06be 0efd 953e
00000040: 6524 b3bd 31cc 84be d780 693d 73d0 533d
00000050: ac9f f23d 27a6 953d 951e 053e ee35 bd3d
00000060: 6441 b53d fb6c b4bc 34e0 153e cd8a fa3d
00000070: f7ee bdbd 12e4 943e e3b5 923e 4af4 583e
00000080: e229 003f 200a c9bd 163a 79be e740 263e
00000090: 6f71 2d3e faa1 a33e ebe7 633d 6f0e 3abe
000000a0: c2b7 8d3e ff2b 033e 819a 32be 4274 b6bd
000000b0: 69a4 733e 7e40 c03e a7ed 1a3d fb56 2abe
000000c0: 32b9 bb3e 77ef 893e 60d2 5cbc ae92 973e
000000d0: 101d 6b3c c1d3 27bc 48f5 9d3e d316 213e
000000e0: 365a 8c3e a984 7d3d c8ff 6a3e f13c 3b3c
000000f0: ad4b 0d3d a686 2c3e c0ec 3f3d 4ca6 e43e
00000100: de97 9b3e c792 d3be 8af6 adbd 12ac 213e
00000110: 6cb1 5c3b b0db a7be 960d 8a3e 42b3 26bf
00000120: ef0d 35bd 1b5b 053e 9429 25be 7090 25be
00000130: 60a6 bebe 574a 8c3e 1b80 0f3d 082c 6abe
00000140: 41ae 243e e335 bc3d 9969 f1be 961b b33e
00000150: 75c0 903e 8725 ee3d 8e27 8e3e 2d34 443e
00000160: 3a6a 8b3d 443d 8e3e b356 d2be 8797 1bbc
00000170: 18a9 9fbe 73c3 363e b5e8 e03d 1409 45bd
00000180: e527 61be 3514 f6bd 3652 e6ba a5e2 8b3d
00000190: 5f5c d6bd dcda 843e cc40 823e 7894 80bc
000001a0: d48a 8e3d 9354 ef3c 95a7 fbbd a5f7 debe
000001b0: aa45 ac3e a776 733b deae b53e 3146 683e
000001c0: 6db6 683d dd14 a5be 8040 5dbe 5296 17be
000001d0: 5702 8cbb f051 77bd 00ec 803d c7f1 0a3d
000001e0: ddd3 7c3e 38c0 083e 6b1f 45be a7a9 07be
000001f0: 9293 60bd 6842 903e 7285 873e cd4b 193f
-0.0038965351 -0.38665068 -0.24536414 0.2859687 -0.09706772 0.011975517 0.2273977 -0.09324163
0.21715736 0.24368773 -0.16523464 -0.2952987 -0.06535235 0.37543073 -0.13135539 0.29294628
-0.08747176 -0.25937036 0.057007637 0.051712465 0.11846861 0.07307082 0.12999947 0.09238802
0.08850363 -0.022024622 0.14636308 0.122335054 -0.092740946 0.29080254 0.28654394 0.21186939
0.5006391 -0.09816384 -0.24338564 0.16235696 0.16937803 0.31959516 0.055641096 -0.18169568
0.2767926 0.12809752 -0.17441751 -0.08908893 0.23793186 0.37549204 0.0378243 -0.16634743
0.3666473 0.2694051 -0.013477892 0.29604095 0.014350191 -0.010243357 0.30851197 0.15731363
0.27412575 0.061894093 0.22949135 0.011428104 0.034496 0.1684824 0.04685664 0.44658124
0.30389303 -0.4132292 -0.08494289 0.15788296 0.0033675088 -0.32784796 0.2696349 -0.65117276
-0.04420274 0.13023035 -0.16129142 -0.1616838 -0.3723631 0.27400467 0.03503428 -0.22868359
0.16082098 0.091899656 -0.47150877 0.34981984 0.28271833 0.116282515 0.27764553 0.19160528
0.068073705 0.27781117 -0.4108177 -0.009496576 -0.31183696 0.17847995 0.10981885 -0.04810436
-0.21987875 -0.12015573 -0.0017572108 0.068303384 -0.10466837 0.25948226 0.2544006 -0.015695795
0.06960073 0.029215133 -0.12287823 -0.43548313 0.336469 0.003714958 0.35484976 0.22683026
0.0568146 -0.3224248 -0.21606636 -0.14803436 -0.00427274 -0.060380876 0.062950134 0.033921983
0.24690194 0.13354576 -0.19250266 -0.13248311 -0.054828234 0.28175664 0.26468998 0.5988129

fc4.bias f4 [4]
00000000: d157 7e3e 05ce a83e 43a0 463e 208c a03e
0.24838187 0.3296968 0.19397072 0.31356907
